…
, 'ema_decay': 0.9999, 'ema_start_update': 0, 'ema_seed_model': None, 'ema_update_freq': 1, 'ema_fp32': False}, 'simul_type': 'waitk_fixed_pre_decision'}
2023-01-20 02:50:58 | INFO | fairseq.tasks.speech_to_text | dictionary size (spm_unigram10000_st.txt): 10,000
Encoder: Sharing layers: []
Encoder: Sharing layers: []
Decoder: Sharing layers: []
TransformerMonotonicDecoder sharing layers: []
2023-01-20 02:50:59 | INFO | fairseq_cli.train | AugmentedMemoryConvTransformerModel(
  (encoder): SequenceEncoder(
    (module): AugmentedMemoryConvTransformerEncoder(
      (conv): Sequential(
        (0): Conv2d(1, 256, kernel_size=(3, 3), stride=(2, 2), padding=(1, 1))
        (1): ReLU()
        (2): Conv2d(256, 256, kernel_size=(3, 3), stride=(2, 2), padding=(1, 1))
        (3): ReLU()
      )
      (out): Linear(in_features=5120, out_features=256, bias=True)
      (embed_positions): SinusoidalPositionalEmbedding()
      (transformer_layers): ModuleList(
        (0): AugmentedMemoryTransformerEncoderLayer(
          (self_attn): AugmentedMemoryMultiheadAttention(
            (dropout_module): FairseqDropout()
            (k_proj): Linear(in_features=256, out_features=256, bias=True)
            (v_proj): Linear(in_features=256, out_features=256, bias=True)
            (q_proj): Linear(in_features=256, out_features=256, bias=True)
            (out_proj): Linear(in_features=256, out_features=256, bias=True)
            (rpe_k): RelativePositionEmbedding()
            (rpe_v): RelativePositionEmbedding()
          )
          (self_attn_layer_norm): LayerNorm((256,), eps=1e-05, elementwise_affine=True)
          (dropout_module): FairseqDropout()
          (activation_dropout_module): FairseqDropout()
          (fc1): Linear(in_features=256, out_features=2048, bias=True)
          (fc2): Linear(in_features=2048, out_features=256, bias=True)
          (final_layer_norm): LayerNorm((256,), eps=1e-05, elementwise_affine=True)
        )
        (1): AugmentedMemoryTransformerEncoderLayer(
          (self_attn): AugmentedMemoryMultiheadAttention(
            (dropout_module): FairseqDropout()
            (k_proj): Linear(in_features=256, out_features=256, bias=True)
            (v_proj): Linear(in_features=256, out_features=256, bias=True)
            (q_proj): Linear(in_features=256, out_features=256, bias=True)
            (out_proj): Linear(in_features=256, out_features=256, bias=True)
            (rpe_k): RelativePositionEmbedding()
            (rpe_v): RelativePositionEmbedding()
          )
          (self_attn_layer_norm): LayerNorm((256,), eps=1e-05, elementwise_affine=True)
          (dropout_module): FairseqDropout()
          (activation_dropout_module): FairseqDropout()
          (fc1): Linear(in_features=256, out_features=2048, bias=True)
          (fc2): Linear(in_features=2048, out_features=256, bias=True)
          (final_layer_norm): LayerNorm((256,), eps=1e-05, elementwise_affine=True)
        )
        (2): AugmentedMemoryTransformerEncoderLayer(
          (self_attn): AugmentedMemoryMultiheadAttention(
            (dropout_module): FairseqDropout()
            (k_proj): Linear(in_features=256, out_features=256, bias=True)
            (v_proj): Linear(in_features=256, out_features=256, bias=True)
            (q_proj): Linear(in_features=256, out_features=256, bias=True)
            (out_proj): Linear(in_features=256, out_features=256, bias=True)
            (rpe_k): RelativePositionEmbedding()
            (rpe_v): RelativePositionEmbedding()
          )
          (self_attn_layer_norm): LayerNorm((256,), eps=1e-05, elementwise_affine=True)
          (dropout_module): FairseqDropout()
          (activation_dropout_module): FairseqDropout()
          (fc1): Linear(in_features=256, out_features=2048, bias=True)
          (fc2): Linear(in_features=2048, out_features=256, bias=True)
          (final_layer_norm): LayerNorm((256,), eps=1e-05, elementwise_affine=True)
        )
        (3): AugmentedMemoryTransformerEncoderLayer(
          (self_attn): AugmentedMemoryMultiheadAttention(
            (dropout_module): FairseqDropout()
            (k_proj): Linear(in_features=256, out_features=256, bias=True)
            (v_proj): Linear(in_features=256, out_features=256, bias=True)
            (q_proj): Linear(in_features=256, out_features=256, bias=True)
            (out_proj): Linear(in_features=256, out_features=256, bias=True)
            (rpe_k): RelativePositionEmbedding()
            (rpe_v): RelativePositionEmbedding()
          )
          (self_attn_layer_norm): LayerNorm((256,), eps=1e-05, elementwise_affine=True)
          (dropout_module): FairseqDropout()
          (activation_dropout_module): FairseqDropout()
          (fc1): Linear(in_features=256, out_features=2048, bias=True)
          (fc2): Linear(in_features=2048, out_features=256, bias=True)
          (final_layer_norm): LayerNorm((256,), eps=1e-05, elementwise_affine=True)
        )
        (4): AugmentedMemoryTransformerEncoderLayer(
          (self_attn): AugmentedMemoryMultiheadAttention(
            (dropout_module): FairseqDropout()
            (k_proj): Linear(in_features=256, out_features=256, bias=True)
            (v_proj): Linear(in_features=256, out_features=256, bias=True)
            (q_proj): Linear(in_features=256, out_features=256, bias=True)
            (out_proj): Linear(in_features=256, out_features=256, bias=True)
            (rpe_k): RelativePositionEmbedding()
            (rpe_v): RelativePositionEmbedding()
          )
          (self_attn_layer_norm): LayerNorm((256,), eps=1e-05, elementwise_affine=True)
          (dropout_module): FairseqDropout()
          (activation_dropout_module): FairseqDropout()
          (fc1): Linear(in_features=256, out_features=2048, bias=True)
          (fc2): Linear(in_features=2048, out_features=256, bias=True)
          (final_layer_norm): LayerNorm((256,), eps=1e-05, elementwise_affine=True)
        )
        (5): AugmentedMemoryTransformerEncoderLayer(
          (self_attn): AugmentedMemoryMultiheadAttention(
            (dropout_module): FairseqDropout()
            (k_proj): Linear(in_features=256, out_features=256, bias=True)
            (v_proj): Linear(in_features=256, out_features=256, bias=True)
            (q_proj): Linear(in_features=256, out_features=256, bias=True)
            (out_proj): Linear(in_features=256, out_features=256, bias=True)
            (rpe_k): RelativePositionEmbedding()
            (rpe_v): RelativePositionEmbedding()
          )
          (self_attn_layer_norm): LayerNorm((256,), eps=1e-05, elementwise_affine=True)
          (dropout_module): FairseqDropout()
          (activation_dropout_module): FairseqDropout()
          (fc1): Linear(in_features=256, out_features=2048, bias=True)
          (fc2): Linear(in_features=2048, out_features=256, bias=True)
          (final_layer_norm): LayerNorm((256,), eps=1e-05, elementwise_affine=True)
        )
        (6): AugmentedMemoryTransformerEncoderLayer(
          (self_attn): AugmentedMemoryMultiheadAttention(
            (dropout_module): FairseqDropout()
            (k_proj): Linear(in_features=256, out_features=256, bias=True)
            (v_proj): Linear(in_features=256, out_features=256, bias=True)
            (q_proj): Linear(in_features=256, out_features=256, bias=True)
            (out_proj): Linear(in_features=256, out_features=256, bias=True)
            (rpe_k): RelativePositionEmbedding()
            (rpe_v): RelativePositionEmbedding()
          )
          (self_attn_layer_norm): LayerNorm((256,), eps=1e-05, elementwise_affine=True)
          (dropout_module): FairseqDropout()
          (activation_dropout_module): FairseqDropout()
          (fc1): Linear(in_features=256, out_features=2048, bias=True)
          (fc2): Linear(in_features=2048, out_features=256, bias=True)
          (final_layer_norm): LayerNorm((256,), eps=1e-05, elementwise_affine=True)
        )
        (7): AugmentedMemoryTransformerEncoderLayer(
          (self_attn): AugmentedMemoryMultiheadAttention(
            (dropout_module): FairseqDropout()
            (k_proj): Linear(in_features=256, out_features=256, bias=True)
            (v_proj): Linear(in_features=256, out_features=256, bias=True)
            (q_proj): Linear(in_features=256, out_features=256, bias=True)
            (out_proj): Linear(in_features=256, out_features=256, bias=True)
            (rpe_k): RelativePositionEmbedding()
            (rpe_v): RelativePositionEmbedding()
          )
          (self_attn_layer_norm): LayerNorm((256,), eps=1e-05, elementwise_affine=True)
          (dropout_module): FairseqDropout()
          (activation_dropout_module): FairseqDropout()
          (fc1): Linear(in_features=256, out_features=2048, bias=True)
          (fc2): Linear(in_features=2048, out_features=256, bias=True)
          (final_layer_norm): LayerNorm((256,), eps=1e-05, elementwise_affine=True)
        )
        (8): AugmentedMemoryTransformerEncoderLayer(
          (self_attn): AugmentedMemoryMultiheadAttention(
            (dropout_module): FairseqDropout()
            (k_proj): Linear(in_features=256, out_features=256, bias=True)
            (v_proj): Linear(in_features=256, out_features=256, bias=True)
            (q_proj): Linear(in_features=256, out_features=256, bias=True)
            (out_proj): Linear(in_features=256, out_features=256, bias=True)
            (rpe_k): RelativePositionEmbedding()
            (rpe_v): RelativePositionEmbedding()
          )
          (self_attn_layer_norm): LayerNorm((256,), eps=1e-05, elementwise_affine=True)
          (dropout_module): FairseqDropout()
          (activation_dropout_module): FairseqDropout()
          (fc1): Linear(in_features=256, out_features=2048, bias=True)
          (fc2): Linear(in_features=2048, out_features=256, bias=True)
          (final_layer_norm): LayerNorm((256,), eps=1e-05, elementwise_affine=True)
        )
        (9): AugmentedMemoryTransformerEncoderLayer(
          (self_attn): AugmentedMemoryMultiheadAttention(
            (dropout_module): FairseqDropout()
            (k_proj): Linear(in_features=256, out_features=256, bias=True)
            (v_proj): Linear(in_features=256, out_features=256, bias=True)
            (q_proj): Linear(in_features=256, out_features=256, bias=True)
            (out_proj): Linear(in_features=256, out_features=256, bias=True)
            (rpe_k): RelativePositionEmbedding()
            (rpe_v): RelativePositionEmbedding()
          )
          (self_attn_layer_norm): LayerNorm((256,), eps=1e-05, elementwise_affine=True)
          (dropout_module): FairseqDropout()
          (activation_dropout_module): FairseqDropout()
          (fc1): Linear(in_features=256, out_features=2048, bias=True)
          (fc2): Linear(in_features=2048, out_features=256, bias=True)
          (final_layer_norm): LayerNorm((256,), eps=1e-05, elementwise_affine=True)
        )
        (10): AugmentedMemoryTransformerEncoderLayer(
          (self_attn): AugmentedMemoryMultiheadAttention(
            (dropout_module): FairseqDropout()
            (k_proj): Linear(in_features=256, out_features=256, bias=True)
            (v_proj): Linear(in_features=256, out_features=256, bias=True)
            (q_proj): Linear(in_features=256, out_features=256, bias=True)
            (out_proj): Linear(in_features=256, out_features=256, bias=True)
            (rpe_k): RelativePositionEmbedding()
            (rpe_v): RelativePositionEmbedding()
          )
          (self_attn_layer_norm): LayerNorm((256,), eps=1e-05, elementwise_affine=True)
          (dropout_module): FairseqDropout()
          (activation_dropout_module): FairseqDropout()
          (fc1): Linear(in_features=256, out_features=2048, bias=True)
          (fc2): Linear(in_features=2048, out_features=256, bias=True)
          (final_layer_norm): LayerNorm((256,), eps=1e-05, elementwise_affine=True)
        )
        (11): AugmentedMemoryTransformerEncoderLayer(
          (self_attn): AugmentedMemoryMultiheadAttention(
            (dropout_module): FairseqDropout()
            (k_proj): Linear(in_features=256, out_features=256, bias=True)
            (v_proj): Linear(in_features=256, out_features=256, bias=True)
            (q_proj): Linear(in_features=256, out_features=256, bias=True)
            (out_proj): Linear(in_features=256, out_features=256, bias=True)
            (rpe_k): RelativePositionEmbedding()
            (rpe_v): RelativePositionEmbedding()
          )
          (self_attn_layer_norm): LayerNorm((256,), eps=1e-05, elementwise_affine=True)
          (dropout_module): FairseqDropout()
          (activation_dropout_module): FairseqDropout()
          (fc1): Linear(in_features=256, out_features=2048, bias=True)
          (fc2): Linear(in_features=2048, out_features=256, bias=True)
          (final_layer_norm): LayerNorm((256,), eps=1e-05, elementwise_affine=True)
        )
      )
      (layer_norm): LayerNorm((256,), eps=1e-05, elementwise_affine=True)
      (summarize): AvgPool1d(kernel_size=(1,), stride=(1,), padding=(0,))
    )
    (summarize): AvgPool1d(kernel_size=(1,), stride=(1,), padding=(0,))
  )
  (decoder): TransformerMonotonicDecoder(
    (dropout_module): FairseqDropout()
    (embed_tokens): Embedding(10000, 256, padding_idx=1)
    (embed_positions): SinusoidalPositionalEmbedding()
    (layers): ModuleList(
      (0): TransformerMonotonicDecoderLayer(
        (dropout_module): FairseqDropout()
        (self_attn): MultiheadAttention(
          (dropout_module): FairseqDropout()
          (k_proj): Linear(in_features=256, out_features=256, bias=True)
          (v_proj): Linear(in_features=256, out_features=256, bias=True)
          (q_proj): Linear(in_features=256, out_features=256, bias=True)
          (out_proj): Linear(in_features=256, out_features=256, bias=True)
        )
        (activation_dropout_module): FairseqDropout()
        (self_attn_layer_norm): LayerNorm((256,), eps=1e-05, elementwise_affine=True)
        (encoder_attn): WaitKAttentionFixedStride(
          (dropout_module): FairseqDropout()
          (k_proj): Linear(in_features=256, out_features=256, bias=True)
          (v_proj): Linear(in_features=256, out_features=256, bias=True)
          (q_proj): Linear(in_features=256, out_features=256, bias=True)
          (out_proj): Linear(in_features=256, out_features=256, bias=True)
          (k_proj_soft): Linear(in_features=256, out_features=256, bias=True)
          (q_proj_soft): Linear(in_features=256, out_features=256, bias=True)
          (pooling_layer): AvgPool1d(kernel_size=(8,), stride=(8,), padding=(0,))
        )
        (encoder_attn_layer_norm): LayerNorm((256,), eps=1e-05, elementwise_affine=True)
        (fc1): Linear(in_features=256, out_features=2048, bias=True)
        (fc2): Linear(in_features=2048, out_features=256, bias=True)
        (final_layer_norm): LayerNorm((256,), eps=1e-05, elementwise_affine=True)
      )
      (1): TransformerMonotonicDecoderLayer(
        (dropout_module): FairseqDropout()
        (self_attn): MultiheadAttention(
          (dropout_module): FairseqDropout()
          (k_proj): Linear(in_features=256, out_features=256, bias=True)
          (v_proj): Linear(in_features=256, out_features=256, bias=True)
          (q_proj): Linear(in_features=256, out_features=256, bias=True)
          (out_proj): Linear(in_features=256, out_features=256, bias=True)
        )
        (activation_dropout_module): FairseqDropout()
        (self_attn_layer_norm): LayerNorm((256,), eps=1e-05, elementwise_affine=True)
        (encoder_attn): WaitKAttentionFixedStride(
          (dropout_module): FairseqDropout()
          (k_proj): Linear(in_features=256, out_features=256, bias=True)
          (v_proj): Linear(in_features=256, out_features=256, bias=True)
          (q_proj): Linear(in_features=256, out_features=256, bias=True)
          (out_proj): Linear(in_features=256, out_features=256, bias=True)
          (k_proj_soft): Linear(in_features=256, out_features=256, bias=True)
          (q_proj_soft): Linear(in_features=256, out_features=256, bias=True)
          (pooling_layer): AvgPool1d(kernel_size=(8,), stride=(8,), padding=(0,))
        )
        (encoder_attn_layer_norm): LayerNorm((256,), eps=1e-05, elementwise_affine=True)
        (fc1): Linear(in_features=256, out_features=2048, bias=True)
        (fc2): Linear(in_features=2048, out_features=256, bias=True)
        (final_layer_norm): LayerNorm((256,), eps=1e-05, elementwise_affine=True)
      )
      (2): TransformerMonotonicDecoderLayer(
        (dropout_module): FairseqDropout()
        (self_attn): MultiheadAttention(
          (dropout_module): FairseqDropout()
          (k_proj): Linear(in_features=256, out_features=256, bias=True)
          (v_proj): Linear(in_features=256, out_features=256, bias=True)
          (q_proj): Linear(in_features=256, out_features=256, bias=True)
          (out_proj): Linear(in_features=256, out_features=256, bias=True)
        )
        (activation_dropout_module): FairseqDropout()
        (self_attn_layer_norm): LayerNorm((256,), eps=1e-05, elementwise_affine=True)
        (encoder_attn): WaitKAttentionFixedStride(
          (dropout_module): FairseqDropout()
          (k_proj): Linear(in_features=256, out_features=256, bias=True)
          (v_proj): Linear(in_features=256, out_features=256, bias=True)
          (q_proj): Linear(in_features=256, out_features=256, bias=True)
          (out_proj): Linear(in_features=256, out_features=256, bias=True)
          (k_proj_soft): Linear(in_features=256, out_features=256, bias=True)
          (q_proj_soft): Linear(in_features=256, out_features=256, bias=True)
          (pooling_layer): AvgPool1d(kernel_size=(8,), stride=(8,), padding=(0,))
        )
        (encoder_attn_layer_norm): LayerNorm((256,), eps=1e-05, elementwise_affine=True)
        (fc1): Linear(in_features=256, out_features=2048, bias=True)
        (fc2): Linear(in_features=2048, out_features=256, bias=True)
        (final_layer_norm): LayerNorm((256,), eps=1e-05, elementwise_affine=True)
      )
      (3): TransformerMonotonicDecoderLayer(
        (dropout_module): FairseqDropout()
        (self_attn): MultiheadAttention(
          (dropout_module): FairseqDropout()
          (k_proj): Linear(in_features=256, out_features=256, bias=True)
          (v_proj): Linear(in_features=256, out_features=256, bias=True)
          (q_proj): Linear(in_features=256, out_features=256, bias=True)
          (out_proj): Linear(in_features=256, out_features=256, bias=True)
        )
        (activation_dropout_module): FairseqDropout()
        (self_attn_layer_norm): LayerNorm((256,), eps=1e-05, elementwise_affine=True)
        (encoder_attn): WaitKAttentionFixedStride(
          (dropout_module): FairseqDropout()
          (k_proj): Linear(in_features=256, out_features=256, bias=True)
          (v_proj): Linear(in_features=256, out_features=256, bias=True)
          (q_proj): Linear(in_features=256, out_features=256, bias=True)
          (out_proj): Linear(in_features=256, out_features=256, bias=True)
          (k_proj_soft): Linear(in_features=256, out_features=256, bias=True)
          (q_proj_soft): Linear(in_features=256, out_features=256, bias=True)
          (pooling_layer): AvgPool1d(kernel_size=(8,), stride=(8,), padding=(0,))
        )
        (encoder_attn_layer_norm): LayerNorm((256,), eps=1e-05, elementwise_affine=True)
        (fc1): Linear(in_features=256, out_features=2048, bias=True)
        (fc2): Linear(in_features=2048, out_features=256, bias=True)
        (final_layer_norm): LayerNorm((256,), eps=1e-05, elementwise_affine=True)
      )
      (4): TransformerMonotonicDecoderLayer(
        (dropout_module): FairseqDropout()
        (self_attn): MultiheadAttention(
          (dropout_module): FairseqDropout()
          (k_proj): Linear(in_features=256, out_features=256, bias=True)
          (v_proj): Linear(in_features=256, out_features=256, bias=True)
          (q_proj): Linear(in_features=256, out_features=256, bias=True)
          (out_proj): Linear(in_features=256, out_features=256, bias=True)
        )
        (activation_dropout_module): FairseqDropout()
        (self_attn_layer_norm): LayerNorm((256,), eps=1e-05, elementwise_affine=True)
        (encoder_attn): WaitKAttentionFixedStride(
          (dropout_module): FairseqDropout()
          (k_proj): Linear(in_features=256, out_features=256, bias=True)
          (v_proj): Linear(in_features=256, out_features=256, bias=True)
          (q_proj): Linear(in_features=256, out_features=256, bias=True)
          (out_proj): Linear(in_features=256, out_features=256, bias=True)
          (k_proj_soft): Linear(in_features=256, out_features=256, bias=True)
          (q_proj_soft): Linear(in_features=256, out_features=256, bias=True)
          (pooling_layer): AvgPool1d(kernel_size=(8,), stride=(8,), padding=(0,))
        )
        (encoder_attn_layer_norm): LayerNorm((256,), eps=1e-05, elementwise_affine=True)
        (fc1): Linear(in_features=256, out_features=2048, bias=True)
        (fc2): Linear(in_features=2048, out_features=256, bias=True)
        (final_layer_norm): LayerNorm((256,), eps=1e-05, elementwise_affine=True)
      )
      (5): TransformerMonotonicDecoderLayer(
        (dropout_module): FairseqDropout()
        (self_attn): MultiheadAttention(
          (dropout_module): FairseqDropout()
          (k_proj): Linear(in_features=256, out_features=256, bias=True)
          (v_proj): Linear(in_features=256, out_features=256, bias=True)
          (q_proj): Linear(in_features=256, out_features=256, bias=True)
          (out_proj): Linear(in_features=256, out_features=256, bias=True)
        )
        (activation_dropout_module): FairseqDropout()
        (self_attn_layer_norm): LayerNorm((256,), eps=1e-05, elementwise_affine=True)
        (encoder_attn): WaitKAttentionFixedStride(
          (dropout_module): FairseqDropout()
          (k_proj): Linear(in_features=256, out_features=256, bias=True)
          (v_proj): Linear(in_features=256, out_features=256, bias=True)
          (q_proj): Linear(in_features=256, out_features=256, bias=True)
          (out_proj): Linear(in_features=256, out_features=256, bias=True)
          (k_proj_soft): Linear(in_features=256, out_features=256, bias=True)
          (q_proj_soft): Linear(in_features=256, out_features=256, bias=True)
          (pooling_layer): AvgPool1d(kernel_size=(8,), stride=(8,), padding=(0,))
        )
        (encoder_attn_layer_norm): LayerNorm((256,), eps=1e-05, elementwise_affine=True)
        (fc1): Linear(in_features=256, out_features=2048, bias=True)
        (fc2): Linear(in_features=2048, out_features=256, bias=True)
        (final_layer_norm): LayerNorm((256,), eps=1e-05, elementwise_affine=True)
      )
    )
    (layer_norm): LayerNorm((256,), eps=1e-05, elementwise_affine=True)
    (output_projection): Linear(in_features=256, out_features=10000, bias=False)
  )
)
2023-01-20 02:50:59 | INFO | fairseq_cli.train | task: SpeechToTextTask
2023-01-20 02:50:59 | INFO | fairseq_cli.train | model: AugmentedMemoryConvTransformerModel
2023-01-20 02:50:59 | INFO | fairseq_cli.train | criterion: LabelSmoothedCrossEntropyCriterion
2023-01-20 02:50:59 | INFO | fairseq_cli.train | num. shared model params: 33,118,208 (num. trained: 33,118,208)
…
